…
145/150 [============================>.] - ETA: 3s - loss: 0.0455
146/150 [============================>.] - ETA: 3s - loss: 0.0454
147/150 [============================>.] - ETA: 2s - loss: 0.0454
148/150 [============================>.] - ETA: 1s - loss: 0.0454
149/150 [============================>.] - ETA: 0s - loss: 0.0453
150/150 [==============================] - 131s 871ms/step - loss: 0.0452 - val_loss: 0.0417
_________________________________________________________________
Layer (type)                 Output Shape              Param #   
=================================================================
cropping2d_1 (Cropping2D)    (None, 65, 320, 3)        0         
_________________________________________________________________
lambda_1 (Lambda)            (None, 65, 320, 3)        0         
_________________________________________________________________
conv2d_1 (Conv2D)            (None, 31, 158, 24)       1824      
_________________________________________________________________
conv2d_2 (Conv2D)            (None, 14, 77, 36)        21636     
_________________________________________________________________
conv2d_3 (Conv2D)            (None, 5, 37, 48)         43248     
_________________________________________________________________
conv2d_4 (Conv2D)            (None, 3, 35, 64)         27712     
_________________________________________________________________
conv2d_5 (Conv2D)            (None, 1, 33, 64)         36928     
_________________________________________________________________
flatten_1 (Flatten)          (None, 2112)              0         
_________________________________________________________________
dense_1 (Dense)              (None, 100)               211300    
_________________________________________________________________
dropout_1 (Dropout)          (None, 100)               0         
_________________________________________________________________
dense_2 (Dense)              (None, 50)                5050      
_________________________________________________________________
dropout_2 (Dropout)          (None, 50)                0         
_________________________________________________________________
dense_3 (Dense)              (None, 10)                510       
_________________________________________________________________
dropout_3 (Dropout)          (None, 10)                0         
_________________________________________________________________
dense_4 (Dense)              (None, 1)                 11        
=================================================================
Total params: 348,219
Trainable params: 348,219
Non-trainable params: 0
_________________________________________________________________
None
